main/DL/model/best_student_model_duofenlei.pth (torch, 86234 bytes, 6 tensors)

lstm.weight_ih_l0 f4 [128, 119]
000000 48 4a 0f 3e c0 ec e6 3c 91 a9 21 bd 7e 11 57 bd
       0.1399318 0.028189063 -0.03946835 -0.052506916
000010 fe 2d 23 3e b4 c7 cf bd db 18 27 be 46 5c de bd
       0.15935513 -0.10145512 -0.16318075 -0.108574435
000020 ac 45 e6 3c 27 8d 77 3d 44 47 04 3e 77 90 ae bd
       0.028109394 0.060437348 0.1291781 -0.08523648
000030 07 53 96 3c 15 84 04 3d 3e a7 ab bd 6a 7c b4 3a
       0.018350137 0.032352526 -0.08381508 0.0013769988
000040 5d 5c 12 82 cc e1 26 ba 8f 15 92 be 91 fb e2 bd
       -1.0752893e-37 -0.0006366044 -0.28532073 -0.11083139
000050 fa 83 56 bc f0 f5 d0 be d8 27 65 be 36 15 70 3d
       -0.013092989 -0.40812635 -0.2237848 0.05861398
000060 b3 76 ba 3c 16 b6 a4 3e 50 28 39 3d a1 23 c3 3d
       0.022761678 0.3217017 0.04520446 0.0952828
000070 a0 54 03 be 75 99 e2 bc e8 de 19 ba 4c 42 ae 3d
       -0.1282525 -0.027661065 -0.00058697024 0.08508739
000080 83 db 3a 3e 37 33 c6 3d 51 2f 97 be bc 50 79 be
       0.182478 0.09677737 -0.29528287 -0.24347204
000090 6a b4 9c 3c c3 af 34 3e d3 27 38 be db 17 b4 3d
       0.019128997 0.17645173 -0.17983942 0.087936126
0000a0 f8 ef ae 3d aa 6e 0f be 39 d9 be bb 10 14 74 be
       0.08541864 -0.14007059 -0.005824235 -0.23835778
0000b0 17 4e 20 be 7c a6 96 bd 12 f6 e8 bd 57 14 ba bd
       -0.15654789 -0.07355973 -0.11375059 -0.09085911
0000c0 a9 17 53 be b1 bd 52 be 49 6c 43 be f5 ca 1b 3d
       -0.20614494 -0.20580174 -0.19084276 0.03803535
0000d0 b6 f4 18 bd 22 c4 a4 3d 76 ab 0f 3e 3d 1a a0 bd
       -0.03734275 0.08045222 0.14030251 -0.078175046
0000e0 b5 04 b7 bd 1d 1a 60 bd 22 13 8e be be fa 92 bc
       -0.08936445 -0.054712404 -0.27748972 -0.017941829
0000f0 5f a7 35 be 0d 13 4f bc 46 0b 41 be ca d0 14 3d
       -0.17739628 -0.012638819 -0.18851957 0.03633193
000100 2c a9 74 bc 4c 6b 3b be 2c a7 2f bc d7 79 38 be
       -0.014932912 -0.1830265 -0.010721009 -0.18015228
000110 ba 3b f5 bd 71 df e2 bd 16 c3 00 be b8 27 30 be
       -0.119742826 -0.11077774 -0.1257442 -0.17202652
000120 4d bc 0c be f6 fa 43 be 0f 49 d4 bd 53 45 1c be
       -0.13743706 -0.19138703 -0.10365497 -0.1526082
000130 a1 03 dd bd ba d4 72 bd 83 7e ca bd 03 00 53 ba
       -0.10791708 -0.059284903 -0.098874114 -0.0008049013
000140 8d 19 16 be b7 ad 2d be 20 bc 5c be 55 da aa 3d
       -0.14658184 -0.16960798 -0.21556139 0.08342425
000150 9a f6 06 bd 5f 5b 15 be 41 3c 1f be 7e 4a 78 3c
       -0.03295002 -0.14585637 -0.15550329 0.015154479
000160 d1 31 98 bc 7a 6e b3 bc 56 37 0e be 9c fe 6c bd
       -0.018578442 -0.021903265 -0.13888296 -0.057860002
000170 6e dd 01 bd a6 3a c9 3d 0c e8 00 be 50 7b fd bd
       -0.031705312 0.098256394 -0.12588519 -0.123770356
000180 5d 32 3a be 30 a6 14 be b9 57 0e be e4 4d 73 3e
       -0.18183275 -0.1451652 -0.13900651 0.23760182
000190 98 fc 8e b9 07 0d 04 bd a9 3d 0b 3d 0c f4 23 bd
       -0.00027272548 -0.032238986 0.03399435 -0.040027663
0001a0 6b 8f 26 3d 2c ac f4 bd c1 a9 d9 bd 23 91 39 be
       0.040664118 -0.11946902 -0.10628081 -0.18121772
0001b0 54 65 41 be 8a 47 7f bd 0f 09 3e 3c e0 36 bd bd
       -0.1888631 -0.062324084 0.011598839 -0.09238982
0001c0 92 18 6b 3e ea 90 7b be da 57 17 3e 47 0e d7 bd
       0.22958592 -0.24566999 0.14779606 -0.1050077
0001d0 8c bf cd bd fe c1 92 3e 3b dc 89 3e 1f c5 4e 3d
       -0.100463 0.2866363 0.26925835 0.050480958
0001e0 b6 4a 1d 3d 66 9c 01 3b d9 91 6c bd e7 ee 7c 3e
       0.038401328 0.0019777059 -0.05775628 0.24700509
0001f0 01 a8 4a bc fa 57 89 3d a5 0b 59 be 9d 3c 00 3e
       -0.012369157 0.06706233 -0.21195848 0.12523122
000200 eb 8f 22 bc 6d b1 50 be 0e 8c 90 bd 18 91 34 bc
       -0.009922008 -0.20380183 -0.07057963 -0.011020921
000210 64 d8 7d 3c 0a c4 42 3c 42 01 65 3b 46 e8 81 02
       0.015493486 0.01188756 0.0034943377 1.9088165e-37
000220 42 ac 24 3c 8b c1 e2 3d 53 fe be be 80 45 37 3d
       0.010050835 0.11072072 -0.3730341 0.044744015
000230 bf 1b bf be bf e2 bf be 62 56 43 3e 94 7a af bc
       -0.37325856 -0.3747768 0.19075921 -0.021420754
000240 54 6d bb 3e 82 54 ed bd e3 0a df bc 0e 57 fc bd
       0.36606848 -0.11588384 -0.02722687 -0.12321292
000250 75 a6 99 3d 94 4d 2a 3e d1 dd 58 bd 88 35 cc 3e
       0.07502452 0.16631156 -0.052945916 0.3988459
000260 d5 2d 11 3e c0 cc 03 be fd 54 75 be be ad c7 bd
       0.1417764 -0.12871075 -0.23958202 -0.097499356
000270 5a 77 38 3e b6 2d 55 be 2a 57 08 3c 36 0e 62 3d
       0.18014279 -0.20818219 0.008321563 0.055189334
000280 3d 68 30 be a3 b8 20 bb 12 68 26 3c 8a 4f 50 be
       -0.17227264 -0.0024524115 0.010156648 -0.20342842
000290 00 2e ac bd 35 0c 83 bd 55 2f 13 be 88 8a 4e bd
       -0.08407211 -0.06398813 -0.14373524 -0.050425082
0002a0 91 39 ce bd 81 fd bd bd b2 9e bc 3d df d7 7f bd
       -0.10069574 -0.09276868 0.09209956 -0.06246173
0002b0 02 65 8c 3d f3 06 66 3e 27 5e 8b bd c7 e1 99 bd
       0.06855203 0.22463588 -0.068050675 -0.07513767
0002c0 35 f6 79 3d 52 93 29 bc 6f 26 76 3d ce b2 82 bd
       0.061025817 -0.010350065 0.060095247 -0.063817605
0002d0 78 65 a8 bb 4f c2 0f be 1c 74 2d bd f9 f5 47 bc
       -0.005139049 -0.14038967 -0.04234706 -0.012204641
0002e0 b4 3b 08 be f2 6f f2 ba 6e e2 f9 bc e0 e6 d0 bd
       -0.13304025 -0.0018496497 -0.030503478 -0.10200286
0002f0 e4 b5 9a bd fa 89 ca bd eb a3 ac bd 36 87 1d be
       -0.07554224 -0.09889598 -0.08429702 -0.1538361
000300 be 29 b4 bd 79 d9 96 bd 33 b7 38 be a5 4e c8 bd
       -0.08797024 -0.07365698 -0.18038635 -0.09780625
000310 26 1f 89 bd d7 7b bf bd 40 1f 3b bd bc b1 c4 bd
       -0.06695394 -0.093497925 -0.0456841 -0.09604213
000320 6a 93 26 be a7 89 8e 3d 06 98 79 bd 49 a8 cd 3b
       -0.16267172 0.06959849 -0.060935996 0.0062761647
000330 57 de 5a bc 7d 26 43 be 42 43 9b bd 59 1b 14 be
       -0.013358674 -0.19057651 -0.07581188 -0.14463557
000340 c5 3d 03 3b 2d 8e db bc 2b 33 2e bd b4 87 52 bd
       0.0020025831 -0.026801193 -0.042529266 -0.051398948
000350 30 41 f3 3d eb 29 bb bd a1 d5 12 be 15 2d 15 bd
       0.11877668 -0.091388546 -0.14339305 -0.036419947
000360 ea 67 b1 bd de 91 e8 bd d9 93 b1 bd af 90 16 3c
       -0.08662398 -0.11355947 -0.08670778 0.009189769
000370 76 2e 86 3b 7d 57 f0 bd dc 9b 52 3b 81 a9 bf 3d
       0.004094894 -0.11735437 0.0032136356 0.09358502
000380 e5 0a 21 be 38 b3 1f be 68 4f ed bd cd 28 0d be
       -0.15726812 -0.1559571 -0.11587411 -0.13785096
000390 fc e3 3c bc 51 f5 6f bd 9b 7f 04 bd f6 ab 42 3e
       -0.011528965 -0.05858356 -0.032348257 0.1901091
0003a0 57 2c 8c be ea 26 41 be cb 52 d7 bd 70 db 33 3d
       -0.2737758 -0.18862501 -0.105138384 0.043910444
0003b0 63 8c 40 3e a2 90 70 3e 66 f5 02 3d 50 82 b8 bc
       0.18803553 0.23492673 0.03197231 -0.022523075
0003c0 09 43 83 bb 56 b7 0f bd 64 93 8c 3d e5 20 8f 3a
       -0.004005794 -0.035086952 0.0686405 0.0010919838
0003d0 0d 09 7f 3b 7e e3 4a be 8b f1 df 3c 56 3b 74 3c
       0.0038915307 -0.19813344 0.027336856 0.014906725
0003e0 61 98 22 3d 13 57 50 3b f7 41 8b 3c 18 ca 15 3d
       0.0396961 0.0031790182 0.016999228 0.036569685
0003f0 4a 1f 57 bc 0f 21 20 3c b4 f9 25 82 a3 10 a6 bc
       -0.0131300185 0.009773507 -1.2193947e-37 -0.020271605

lstm.weight_hh_l0 f4 [128, 32]
000000 3f 85 26 02 02 f4 5d 80 39 72 e6 01 22 bf c4 01
       1.2233994e-37 -8.628235e-39 8.465256e-38 7.227329e-38
000010 c3 c2 77 81 97 8f 33 82 93 6b 43 02 d1 94 16 02
       -4.550647e-38 -1.3192051e-37 1.435721e-37 1.1062968e-37
000020 64 7d 27 80 de 47 9a 01 da 88 fd 80 d9 25 83 82
       -3.626566e-39 5.667379e-38 -2.3283474e-38 -1.9270443e-37
000030 da e5 20 02 66 63 3d 02 34 25 34 01 dc 5c 76 00
       1.1820908e-37 1.3914053e-37 3.308747e-38 1.08699e-38
000040 da a5 a8 80 25 c7 03 01 c5 30 c3 80 fc 4c 5e 81
       -1.548786e-38 2.420378e-38 -1.7925417e-38 -4.0830194e-38
000050 63 d9 89 02 af 77 7b 02 1c fa 44 01 a0 82 d1 81
       2.0255115e-37 1.8474915e-37 3.617896e-38 -7.696191e-38
000060 4a 78 92 01 16 6d e1 80 4c ea 54 01 19 d7 46 02
       5.3804536e-38 -2.0702119e-38 3.910635e-38 1.4608473e-37
000070 15 b7 a0 81 14 a6 4e 82 7c 5e 41 01 6b 4f dc 81
       -5.903743e-38 -1.5182152e-37 3.551629e-38 -8.0929196e-38
000080 b6 f7 8b 81 17 0e 48 82 f4 5d 33 80 ee ef 63 81
       -5.1415984e-38 -1.4697723e-37 -4.717314e-39 -4.1865456e-38
000090 de d7 f6 81 03 20 a7 00 fc 48 47 00 3e 2c 60 82
       -9.067588e-38 1.5348011e-38 6.546502e-39 -1.6469618e-37
0000a0 02 77 f2 81 0a a3 b5 00 fe 6e ba 01 76 cb 44 82
       -8.906753e-38 1.6680712e-38 6.8484875e-38 -1.4458196e-37
0000b0 a8 e5 cc 80 16 b1 8e 02 2d 37 97 82 de cc 50 81
       -1.8816826e-38 2.0966667e-37 -2.2219125e-37 -3.835055e-38
0000c0 bc d0 44 82 1b 5d a3 81 68 4a 92 01 9c 97 99 81
       -1.445971e-37 -6.0010343e-38 5.37387e-38 -5.642087e-38
0000d0 55 e6 02 00 ae ca e7 01 30 16 e6 00 74 f1 10 82
       2.66299e-40 8.514683e-38 2.1130123e-38 -1.0648743e-37
0000e0 00 56 8b 81 12 3e 03 02 b2 5e 0b 02 75 00 41 02
       -5.118394e-38 9.642173e-38 1.0239283e-37 1.4179532e-37
0000f0 e2 fc 82 01 28 ba 48 80 82 00 16 82 fb bb 2d 81
       4.8117327e-38 -6.678936e-39 -1.1020405e-37 -3.190995e-38
000100 80 8a 6d 81 17 02 a9 00 5a b9 4a 82 dc 72 88 82
       -4.3629394e-38 1.5520949e-38 -1.489381e-37 -2.004933e-37
000110 68 66 88 01 74 94 78 02 ab 15 b3 81 d4 bc 95 02
       5.0105456e-38 1.8262766e-37 -6.578531e-38 2.2001964e-37
000120 40 f6 3c 02 50 9d ca 01 fc fc 37 82 97 4e 0a 01
       1.3882729e-37 7.4428813e-38 -1.351732e-37 2.5402982e-38
000130 33 5d fd 81 89 b2 56 82 9c e5 06 00 1a 75 a6 81
       -9.3071256e-38 -1.5773474e-37 6.33381e-40 -6.11468e-38
000140 04 2b 1f 81 fe 35 41 02 dc 1e 8e 01 1e 1b 26 82
       -2.923455e-38 1.4194896e-37 5.2206843e-38 -1.2203536e-37
000150 48 d6 4f 82 cc 65 2f 82 e5 9e 36 80 d3 37 32 02
       -1.5269454e-37 -1.2886184e-37 -5.016117e-39 1.3093395e-37
000160 46 c8 89 80 77 d5 8e 80 79 6e e6 81 6a 2b f7 00
       -1.2653308e-38 -1.3117217e-38 -8.4647177e-38 2.2698942e-38
000170 7e 8d 09 80 9e 72 61 02 9b 15 38 02 7a 1a 8d 02
       -8.77277e-40 1.6563283e-37 1.3524385e-37 2.0733285e-37
000180 f6 78 6c 82 2c 4a ea 01 73 49 0c 82 87 c8 84 82
       -1.7373256e-37 8.6064456e-38 -1.0306654e-37 -1.9510754e-37
000190 dc 60 37 01 9d 8b d0 01 fe 26 8d 01 c4 1c 70 82
       3.3681285e-38 7.660747e-38 5.185117e-38 -1.7640671e-37
0001a0 f7 5d 8b 02 a3 8b 0e 82 98 c2 9a 02 f0 3d 60 80
       2.0478148e-37 -1.0472586e-37 2.2739958e-37 -8.838427e-39
0001b0 de 36 88 82 ef 8c aa 01 1d 0c 4c 02 2c 83 8f 01
       -2.0014896e-37 6.2650367e-38 1.4991029e-37 5.2718126e-38
0001c0 b2 f2 81 81 d8 4d 07 80 c8 54 8b 02 de 08 c2 81
       -4.7735367e-38 -6.70774e-40 2.0472876e-37 -7.127707e-38
0001d0 9a 95 31 82 d0 96 4d 00 32 f3 40 82 cf 47 06 82
       -1.304684e-37 7.125435e-39 -1.4175726e-37 -9.865373e-38
0001e0 20 a1 d3 81 60 b2 29 02 7d 8f 98 80 99 3d 2c 02
       -7.774036e-38 1.246735e-37 -1.401047e-38 1.2654242e-37
0001f0 08 e6 81 82 bc 87 b2 01 03 81 31 82 f8 5f e2 80
       -1.9086878e-37 6.558164e-38 -1.3040931e-37 -2.0789249e-38
000200 7d 6f a2 01 e2 b9 f6 01 ac a8 00 02 f4 7f 5b 02
       5.966938e-38 9.0632857e-38 9.452361e-38 1.61263e-37
000210 ef 57 72 81 65 68 8b 82 7a a4 e9 80 f7 7f 82 81
       -4.451147e-38 -2.0484134e-37 -2.1456674e-38 -4.793808e-38
000220 48 d6 67 80 5a f0 4b 01 b0 7d 97 81 f8 03 06 82
       -9.535926e-39 3.7457655e-38 -5.564899e-38 -9.845904e-38
000230 df 45 11 82 9e 36 60 82 c8 56 3a 81 78 c8 55 80
       -1.067297e-37 -1.6472595e-37 -3.4225067e-38 -7.877932e-39
000240 be 0b 06 82 d0 f3 6f 02 ce a6 72 00 3e 37 91 02
       -9.848135e-38 1.7628918e-37 1.0529085e-38 2.1337543e-37
000250 d9 e0 30 82 b6 6f 74 81 b5 0c 03 02 fe 3a e5 81
       -1.2994966e-37 -4.489587e-38 9.628007e-38 -8.4205964e-38
000260 da d7 0f 82 cc 06 99 82 0e 3b 7f 02 b7 f2 bf 00
       -1.0567927e-37 -2.248523e-37 1.8751389e-37 1.762765e-38
000270 91 5d 2a 02 0c 87 37 82 2b 24 39 82 a2 b7 46 80
       1.251648e-37 -1.3483473e-37 -1.3602033e-37 -6.49436e-39
000280 3e e5 2f 81 f0 be 1b 02 4c b1 b0 81 0c 1e 61 82
       -3.2306897e-38 1.1442398e-37 -6.49066e-38 -1.6539012e-37
000290 6a df 04 81 0d 0c 85 81 f1 72 86 01 6e b5 0d 81
       -2.4404863e-38 -4.8873776e-38 4.938876e-38 -2.602778e-38
0002a0 68 84 ad 80 84 11 4c 00 c6 27 61 82 f8 59 5e 00
       -1.5935039e-38 6.985781e-39 -1.6541804e-37 8.664811e-39
0002b0 d8 05 05 82 30 82 d8 81 5f ca 5e 82 bf 6f 71 02
       -9.772974e-38 -7.953268e-38 -1.6368062e-37 1.7737953e-37
0002c0 85 9f 71 02 a5 8c 6b 01 fb 3b 61 82 3a 50 34 82
       1.7751664e-37 4.326359e-38 -1.6547603e-37 -1.3247335e-37
0002d0 94 22 5b 81 9e bb 03 81 f8 4a 4f 82 d2 9c c5 00
       -4.0248756e-38 -2.419551e-38 -1.5229473e-37 1.8147849e-38
0002e0 2c 8a bb 81 c4 99 50 01 82 52 85 81 79 9a 83 82
       -6.889122e-38 3.8313888e-38 -4.8974877e-38 -1.9337383e-37
0002f0 d3 89 4f 02 45 a3 4a 02 c8 85 93 81 72 b3 7c 01
       1.5247512e-37 1.4887472e-37 -5.419124e-38 4.6413836e-38
000300 8e aa 2b 82 b7 a3 6d 81 3a 3e 78 01 94 c9 18 82
       -1.2612043e-37 -4.3647485e-38 4.5595051e-38 -1.1225046e-37
000310 0e 01 98 02 d4 9f b0 01 5d e1 59 82 e5 2d 9a 01
       2.2334998e-37 6.488153e-38 -1.6007318e-37 5.663652e-38
000320 14 e0 21 02 85 f7 4e 02 a6 c3 1e 02 30 ab ac 01
       1.1892719e-37 1.5205524e-37 1.1664155e-37 6.3428463e-38
000330 9c d9 71 81 68 9d 4c 01 68 a5 87 82 04 db 79 82
       -4.4420836e-38 3.7581816e-38 -1.9931406e-37 -1.8356485e-37
000340 4c d1 13 02 5a a3 a2 80 84 99 59 81 84 43 3f 00
       1.085992e-37 -1.493595e-38 -3.9966747e-38 5.809856e-39
000350 96 99 92 81 88 81 df 81 18 9d b0 00 ea ac 76 81
       -5.3852315e-38 -8.210313e-38 1.6219402e-38 -4.5307124e-38
000360 f4 e7 1b 02 10 84 42 00 00 e8 d5 01 83 85 e5 81
       1.1454169e-37 6.108518e-39 7.8576746e-38 -8.4312894e-38
000370 1e 68 91 01 8a db 2a 02 af 99 0c 82 5b 1e bc 80
       5.341399e-38 1.2552632e-37 -1.0329681e-37 -1.7275963e-38
000380 ad e0 84 02 80 ae 92 82 ad ca 54 82 a0 6e ce 81
       1.9524614e-37 -2.155293e-37 -1.5633465e-37 -7.583119e-38
000390 8a cb 9b 81 ed 2c 81 02 8e d3 0f 02 8c 6f 81 02
       -5.723007e-38 1.8980633e-37 1.0566694e-37 1.9018871e-37
0003a0 b9 52 c1 01 1c 54 3b 00 ee 27 cc 01 be 4e 22 81
       7.1015704e-38 5.448467e-39 7.499506e-38 -2.9811196e-38
0003b0 b4 94 ac 01 4e 3e 08 80 8c 3d 99 02 94 ff 9f 80
       6.33962e-38 -7.57035e-40 2.2516656e-37 -1.4693528e-38
0003c0 02 b2 37 02 f3 0f 0d 82 78 30 37 01 56 e6 8d 01
       1.3495802e-37 -1.0363621e-37 3.3646566e-38 5.2125736e-38
0003d0 6e 99 91 82 9e f0 6d 01 0c ab aa 01 73 9c 66 82
       -2.13939e-37 4.370266e-38 6.269358e-38 -1.694263e-37
0003e0 9e 2d 91 02 66 89 3b 82 fe 80 55 02 ea 61 3b 81
       2.1332018e-37 -1.3778022e-37 1.5685787e-37 -3.4416725e-38
0003f0 04 a4 04 82 a9 8a 6f 82 ab 0a 82 82 34 c0 4a 00
       -9.744899e-38 -1.759874e-37 -1.9107906e-37 6.864776e-39

lstm.bias_ih_l0 f4 [128]
000000 a5 68 a1 3e dc 16 9e 3e 69 91 da 3e 82 4c 05 3f
       0.3152515 0.30876815 0.42689064 0.52069867
000010 0c 18 ad 3e d1 d0 a9 3e 6c 0c f1 3e 6f fb c4 3e
       0.3380741 0.33167127 0.4707979 0.3847308
000020 32 74 e3 3e ef cc 25 3f 89 95 2f 3f b8 54 e5 3e
       0.44424587 0.6476583 0.6858755 0.44791198
000030 cb 96 e7 3e e0 00 cf 3e 47 1f 00 3f a4 87 08 3f
       0.45232233 0.40430355 0.50047725 0.5333197
000040 8f 58 a4 3e 27 50 f8 3e a5 48 b4 3e 18 bb 9a 3e
       0.32098815 0.4849865 0.35211673 0.30220866
000050 fb 10 e9 3e 34 c1 ce 3e c0 b1 d7 3e 2f 5d 14 3f
       0.45520768 0.40381777 0.421278 0.57954687
000060 2a 2a c2 3e ac 48 ff 3e 08 ce d8 3e 6e f5 0b 3f
       0.37922794 0.49860132 0.4234469 0.5467137
000070 17 55 1c 3f fa f4 1a 3f ff 00 30 3f db 30 ea 3e
       0.61067337 0.60530055 0.6875152 0.457404
000080 6a 90 cb 01 57 d1 88 82 00 64 43 82 44 40 6a 82
       7.4777647e-38 -2.010356e-37 -1.4355036e-37 -1.7210048e-37
000090 2f 55 48 00 95 2e 44 82 ce 9b 83 02 46 d9 2d 82
       6.642714e-39 -1.4413174e-37 1.9338147e-37 -1.2772387e-37
0000a0 2a 13 7f 01 12 64 8c 00 37 0c 03 82 d1 c2 ef 81
       4.6849853e-38 1.2892868e-38 -9.627865e-38 -8.807428e-38
0000b0 54 45 0b 02 b4 a0 71 02 c4 5b 5b 02 18 69 65 82
       1.0232003e-37 1.7752003e-37 1.6115914e-37 -1.6854423e-37
0000c0 f8 e4 a2 80 d2 b4 10 82 c2 f2 76 80 42 9e 97 81
       -1.4959489e-38 -1.0631342e-37 -1.0923674e-38 -5.569573e-38
0000d0 52 7c 0d 02 01 6b 99 81 0a c3 87 82 58 4b 27 80
       1.0394722e-37 -5.6356867e-38 -1.9948414e-37 -3.608613e-39
0000e0 56 e3 7e 82 64 9f 0a 02 20 e7 df 01 d6 93 ec 81
       -1.8726215e-37 1.0184382e-37 8.224891e-38 -8.690484e-38
0000f0 ed 55 12 02 f4 a3 94 01 be ea fc 81 7e 6b 2b 02
       1.0751045e-37 5.4601875e-38 -9.290702e-38 1.2593945e-37
000100 33 c7 b5 3e ae 70 bc be 44 4c c2 be b5 aa b0 3e
       0.3550354 -0.36804718 -0.3794881 0.3450524
000110 92 ab b6 be e2 0c 91 3e 53 3b 92 3e 41 bb f5 be
       -0.35677773 0.2833014 0.28560886 -0.47994426
000120 4f 84 02 3e 19 37 b8 3e de d9 a4 3e 2b e9 54 3e
       0.12745784 0.35979536 0.3219747 0.20792072
000130 3a 6a f7 be 2a 49 52 3e 15 a3 8e 3e 94 99 ae 3d
       -0.48323232 0.20535722 0.27858797 0.085253865
000140 1c c0 5e be 19 d1 8f be ce 94 f0 bc 7d 7e be 3e
       -0.21752971 -0.28089216 -0.02936783 0.37205878
000150 19 9f 9c 3e e5 71 85 3e 02 62 90 3e 83 ae b2 be
       0.30590132 0.26063457 0.28199774 -0.34898767
000160 a6 35 c8 bd f8 6f 8b be db bc 70 3e a3 53 b9 be
       -0.097758576 -0.27233863 0.23509543 -0.36196622
000170 97 07 98 3d 1d 48 90 bd 58 db e4 be 81 4d 4c be
       0.07423323 -0.070450045 -0.44698596 -0.1995144
000180 9b 13 ef 3e c0 a7 e3 3e 34 c7 bd 3e ad 1a da 3e
       0.46694645 0.4446392 0.37066042 0.42598477
000190 08 f9 f2 3e 55 f2 e1 3e 74 94 e8 3e 81 d3 fc 3e
       0.4745562 0.44130197 0.4542576 0.49380115
0001a0 aa 1d 39 3f 95 39 0f 3f d4 4c 24 3f fe e4 f5 3e
       0.7231089 0.5594724 0.6417973 0.4802627
0001b0 24 49 0d 3f dc b5 b0 3e ec 85 eb 3e b1 fc fc 3e
       0.5518973 0.34513748 0.46000612 0.49411538
0001c0 9c 88 df 3e 88 a7 03 3f e5 c7 9a 3e 2b 77 cd 3e
       0.43658912 0.5142751 0.30230632 0.4012998
0001d0 4d e8 b2 3e 39 9f a5 3e 73 db 00 3f 06 85 0e 3f
       0.34942856 0.3234804 0.5033485 0.5567173
0001e0 2c 68 08 3f 5a 0c df 3e 2d 14 33 3f 9c 30 ea 3e
       0.53283954 0.4356411 0.6995266 0.4574021
0001f0 77 f9 06 3f 5e a5 12 3f 84 b5 31 3f b5 60 0f 3f
       0.52724403 0.5728358 0.69417596 0.5600694

lstm.bias_hh_l0 f4 [128]
000000 76 77 45 3e 38 a2 80 3e 43 8c 0f 3f 11 7c 06 3f
       0.19283852 0.25123763 0.560734 0.5253306
000010 89 0d db 3e 0f 54 cd 3e 7c c9 0f 3f 11 f2 03 3f
       0.42783764 0.40103194 0.56166816 0.5154124
000020 75 5a 2e 3f e1 d6 13 3f 71 4d 12 3f 36 7d 22 3f
       0.68106776 0.57749754 0.57149416 0.63472307
000030 dc 07 d8 3e 1b 7e ed 3e 97 67 ef 3e 6f 4c 00 3f
       0.42193496 0.46385273 0.4675872 0.5011663
000040 97 4f ae 3e 63 86 c4 3e 3b c3 e1 3e 85 2f 88 3e
       0.34045097 0.3838378 0.44094262 0.26598755
000050 70 7a aa 3e b8 ef 01 3f 40 7f 13 3f f5 35 cf 3e
       0.33296537 0.50756407 0.57616043 0.40470853
000060 a8 3d c9 3e 35 de 31 3f a9 c6 0d 3f f0 77 11 3f
       0.39304852 0.69479686 0.55381256 0.56823635
000070 04 20 08 3f f1 0b d7 3e db d8 20 3f 57 15 36 3f
       0.5317385 0.42001298 0.62830895 0.7112631
000080 a8 8b fd 00 3c 47 65 80 e0 2e 3f 00 99 e6 d3 01
       2.328448e-38 -9.300939e-39 5.802452e-39 7.784005e-38
000090 e1 12 d4 81 72 00 77 82 00 cc 81 01 f1 e0 0f 82
       -7.790359e-38 -1.8146822e-37 4.767984e-38 -1.0570536e-37
0000a0 18 62 96 82 bf 15 87 02 39 d6 40 82 df 5f c7 01
       -2.2096822e-37 1.9848949e-37 -1.4167411e-37 7.3238623e-38
0000b0 06 fc 10 80 fa 5f 65 80 ef 85 92 81 52 49 d9 01
       -1.559777e-39 -9.309815e-39 -5.3824115e-38 7.981842e-38
0000c0 bf f5 11 01 a9 3c 5f 00 da 07 f8 81 3a 04 ae 80
       2.6808608e-38 8.746133e-39 -9.111208e-38 -1.5980893e-38
0000d0 3a dd 23 82 58 2a 77 82 e0 b0 3e 82 54 9f 68 01
       -1.2038838e-37 -1.8158846e-37 -1.4009756e-37 4.2725983e-38
0000e0 06 77 67 01 5c 28 9e 01 a1 01 55 80 1d e9 33 02
       4.2513394e-38 5.8097946e-38 -7.806602e-39 1.3217743e-37
0000f0 aa c4 15 82 47 b9 1c 02 5c 22 cd 81 98 44 74 02
       -1.1003231e-37 1.1514242e-37 -7.535441e-38 1.7945974e-37
000100 bb b4 49 3e 8d 76 da be 29 08 dd be e6 62 b1 3e
       0.1969785 -0.42668572 -0.43170288 0.34645766
000110 27 46 f2 bd 57 10 6e 3e 20 a7 64 3e 34 2c ee be
       -0.11829787 0.2324842 0.22329378 -0.465181
000120 2f de 9c 3e 3a bd cc 3e fc 66 8e 3e 64 3d 9d 3e
       0.30638263 0.39988118 0.27812946 0.307109
000130 46 ba 86 be 51 bc f8 3e d0 98 52 3e 35 53 9a 3e
       -0.2631399 0.48581174 0.20566106 0.30141607
000140 f3 e1 a5 be 70 28 cb be 35 31 5b be 6c 5c df 3d
       -0.32398948 -0.3967929 -0.2140549 0.109063
000150 88 f7 f0 3e ef 3d 83 3e 36 b1 46 3e 5e 76 4f be
       0.4706385 0.2563319 0.19403538 -0.20259997
000160 96 4c 7e be 55 4d 98 bd 79 f2 34 3e a9 9f e5 be
       -0.24833903 -0.07436625 0.17670621 -0.44848374
000170 eb 97 54 3e 55 18 79 3d dd 97 f9 be 34 67 6c be
       0.20761077 0.06081422 -0.48748675 -0.23086244
000180 73 27 8d 3e 66 ac e2 3e 2b e3 07 3f a2 98 b4 3e
       0.2756916 0.44272155 0.53081006 0.352727
000190 06 e1 f6 3e ad 4e bc 3e 54 fc 00 3f 30 5d 17 3f
       0.48218554 0.36778775 0.5038502 0.5912657
0001a0 c9 d6 35 3f 2d 14 06 3f c4 5f 28 3f 52 19 1c 3f
       0.7103086 0.52374536 0.65771127 0.60976136
0001b0 f9 fd 08 3f c8 07 b1 3e 67 44 f1 3e c3 7b 15 3f
       0.5351253 0.3457625 0.471225 0.5839197
0001c0 e1 d1 cd 3e 3e 55 e2 3e 0f 46 fc 3e 3c 85 71 3e
       0.40199187 0.4420566 0.492722 0.23585981
0001d0 97 e1 f9 3e b8 c1 c4 3e 35 7f 3f 3f 10 2d fb 3e
       0.48804924 0.38429046 0.7480348 0.49057817
0001e0 2d cf b2 3e fd bd ef 3e 76 0e 08 3f c5 50 e7 3e
       0.34923688 0.46824637 0.53147066 0.4517881
0001f0 fe 24 44 3f b2 79 0b 3f 4f e2 45 3f a6 4e 16 3f
       0.76618946 0.5448257 0.77298445 0.5871376

fc.weight f4 [38, 32]
000000 11 88 a2 be 6a e1 76 3e ae f8 03 3f 95 49 bd be
       -0.31744435 0.24109426 0.5155133 -0.369702
000010 5b 47 1a 3e a3 6a 0d be 0d b4 ed bd 72 74 ce 3e
       0.15066282 -0.1381021 -0.116066076 0.40323216
000020 d5 b4 9b bd 9e 1a e3 be 02 f7 bd bc 41 b5 83 bd
       -0.0760285 -0.44356245 -0.023189072 -0.06431056
000030 6e e8 07 3f 8e 73 ab be 72 4f ac be d7 66 e9 bd
       0.53089035 -0.334866 -0.33654362 -0.11396568
000040 7e 5a a0 3e 43 74 13 3e a5 56 d9 be 8b 72 65 be
       0.3131904 0.14399819 -0.42448917 -0.22406976
000050 52 77 73 be 53 e0 00 bf 17 ce 51 be 31 49 ab 3e
       -0.23775986 -0.5034229 -0.20488773 0.33454278
000060 cd b6 3b be 81 58 8a bd a8 c6 14 be 07 ec 90 3e
       -0.18331452 -0.06755162 -0.14528906 0.28305075
000070 d6 6a 88 3d b0 8f 01 3f a0 3d 27 3f bf 11 12 be
       0.06661002 0.50609875 0.6532841 -0.14264582
000080 7d 4b c3 be e9 6f 26 3e d4 92 e1 3e fc e4 94 be
       -0.3814353 0.16253628 0.44057333 -0.2908095
000090 06 1b af ba a0 2f 57 be 30 9d f3 bd 6d 14 00 3f
       -0.0013359494 -0.21014261 -0.118952155 0.5003117
0000a0 6a 93 b4 bc 92 69 0a bf 52 e1 45 be 00 19 3f be
       -0.022042949 -0.5406734 -0.19324234 -0.1866188
0000b0 5d 36 25 3f 97 75 8e be d5 98 5e be 22 5d 58 3c
       0.64536077 -0.2782409 -0.21737988 0.013205798
0000c0 0b ac 0c 3f 25 2a a7 3e 82 ea e3 be 58 b2 1c be
       0.54950017 0.3264934 -0.44514853 -0.15302408
0000d0 d1 48 a0 be 30 09 fe be da 21 4a be 97 9f 68 3e
       -0.31305555 -0.49616385 -0.19739476 0.22717129
0000e0 ae 83 87 be 8d 72 5c bd 6f 10 d3 bd 43 63 bf 3e
       -0.2646765 -0.05382018 -0.10305869 0.37380418
0000f0 7a e8 11 3e 5f c9 cb 3e 7a d7 24 3f 3b a2 01 bd
       0.14248839 0.3980207 0.6439129 -0.031648856
000100 c5 44 82 be d2 e1 9e 3e 51 42 d4 3e 73 59 b8 be
       -0.25443092 0.31031662 0.41456845 -0.36005744
000110 ba b4 29 3e c2 5b 6d 3c 2b 62 39 be fb 40 a0 3e
       0.16572848 0.014487209 -0.18103854 0.31299576
000120 5d 07 b8 3d 16 19 be be 0a a9 0f be 18 42 a8 bd
       0.089857794 -0.37128514 -0.14029327 -0.082157314
000130 9e 22 44 3f 84 4e ae be e1 3b 96 be d3 29 43 be
       0.7661532 -0.34044278 -0.2934256 -0.19058923
000140 ad bd c6 3e 45 d1 a6 3e 4c 1c a5 be 1d 5c 99 be
       0.38816586 0.32581535 -0.3224815 -0.2995309
000150 26 25 7c be 82 14 8b be 38 bd 57 be d0 38 ca 3e
       -0.24623546 -0.27164084 -0.21068275 0.3949647
000160 e5 84 8f be 18 ad fe 3c c2 fa 13 be a9 6a 98 3e
       -0.28031078 0.031088397 -0.14451125 0.29768875
000170 7a 7d 50 3e 0d be c7 3e 2a 99 fd 3e e0 70 ba bd
       0.20360366 0.39012185 0.49530917 -0.091035604
000180 b2 e0 48 be 14 61 bd 3e 1a 6d cf 3e be bb 6a be
       -0.19616964 0.36988127 0.40512925 -0.2292318
000190 72 b6 97 3d 45 13 83 be a6 8b bf bd 48 d4 d4 3e
       0.074078456 -0.2560064 -0.09352808 0.41568208
0001a0 cd 56 97 3d 94 03 f6 be 96 8a 4d be 36 fa 2a be
       0.07389603 -0.48049605 -0.20072398 -0.1669701
0001b0 4b db 27 3f 9f ff 89 be e5 21 aa be f6 52 17 3d
       0.6556899 -0.26952836 -0.33228984 0.036944352
0001c0 a4 79 fb 3e d0 f0 10 3e 66 a9 c9 be 65 46 86 be
       0.49116242 0.14154363 -0.39387053 -0.26225582
0001d0 57 fd 63 be 82 0f d3 be 23 6d 93 be f6 b0 a6 3e
       -0.2226461 -0.4122277 -0.28794202 0.32556885
0001e0 6e 4b 84 be 9a f3 83 bc 22 8d fb bd e4 24 b0 3e
       -0.25838798 -0.01610737 -0.12282778 0.34403145
0001f0 26 14 77 3d 01 64 b0 3e c1 7e f3 3e dc b3 0f be
       0.06032195 0.34451297 0.47557643 -0.14033455
000200 3a d1 29 be 37 05 97 3e 09 62 29 3f 40 2c 19 be
       -0.1658372 0.29496166 0.66165215 -0.14958286
000210 48 a4 32 3e fd 29 38 3d 43 eb 43 be 91 22 91 3e
       0.17445481 0.04496192 -0.19132714 0.28346685
000220 8f a8 59 3d af f6 0b bf 4d 17 81 be 4f 64 74 bd
       0.053139266 -0.54673284 -0.2521309 -0.059665974
000230 e6 c7 13 3f 14 f4 ff bd 94 82 17 be 86 5c 2a bd
       0.57726896 -0.12497726 -0.14795905 -0.041592143
000240 f4 96 f4 3e 7c f1 08 3e 3d 6b e1 be 65 28 84 be
       0.47771418 0.13373369 -0.4402713 -0.2581207
000250 35 f2 a7 be 7a 0f 54 be 23 b5 b9 be 9a 80 df 3e
       -0.32801977 -0.20709029 -0.3627101 0.43652803
000260 b1 10 a1 be af d2 82 3d 49 db 68 be 34 80 05 3f
       -0.31458047 0.06387841 -0.227399 0.5214875
000270 03 da cc 3d 2b d0 df 3e 48 19 12 3f 95 93 09 be
       0.1000252 0.43713507 0.57069826 -0.13435204
000280 b4 a9 62 be 60 13 7b 3e a4 af 0d 3f 66 be 98 be
       -0.22135049 0.2451911 0.5534613 -0.29832762
000290 88 97 d9 3d c8 ef da ba 4e bc ca bd dd b4 92 3e
       0.106246054 -0.001670354 -0.098991975 0.28653613
0002a0 6e ba 6d 3d b5 fa e8 be 06 48 70 be 02 a9 c3 bd
       0.05803912 -0.45503774 -0.23464975 -0.0955372
0002b0 e1 23 43 3f 6f 94 8b be 79 96 89 be 85 ab 15 be
       0.7622662 -0.27261683 -0.26872614 -0.14616211
0002c0 91 e1 04 3f 04 32 8e 3e 14 10 b2 be f9 be 89 be
       0.5190669 0.27772534 -0.34777892 -0.26903513
0002d0 9c 26 a0 be e2 a0 c4 be 69 be 51 be ce 35 82 3e
       -0.31279457 -0.38403994 -0.20482792 0.25431675
0002e0 0a 89 3d be bf 1c 52 3d 8b f6 1c be bd e7 ca 3e
       -0.18509308 0.051296946 -0.15328424 0.39629927
0002f0 5f de 10 3e dc 0e 0e 3f 84 33 2b 3f 27 01 39 bd
       0.14147328 0.55491424 0.6687548 -0.045167115
000300 ab f6 2d be f2 10 9b 3e d6 92 a3 3e 22 bc 45 be
       -0.16988628 0.30286366 0.31947964 -0.19310048
000310 90 63 a6 3d dd 92 2a be f6 b8 00 be 18 6b 80 3e
       0.08124459 -0.16657586 -0.12570557 0.25081706
000320 34 91 47 be 81 4c e5 be 3d 15 6e bd 2b b8 b8 bd
       -0.19488984 -0.4478493 -0.058125723 -0.09019502
000330 58 07 49 3f 4f 48 cc be 89 06 8e be 62 66 c5 bc
       0.7852683 -0.39898917 -0.2773936 -0.024096671
000340 f4 78 03 3f be c4 a5 3e 98 d5 ac be af 56 18 be
       0.51356435 0.32376665 -0.3375671 -0.14876817
000350 3d 6f 1f be af 45 5d be 6b 3e 40 be 71 d8 3f 3e
       -0.15569778 -0.21608613 -0.1877381 0.1873491
000360 e0 6e 38 be 14 14 7d 3a 41 cd 5a be f7 e5 a3 3e
       -0.18011045 0.0009654176 -0.2136736 0.32011387
000370 24 d0 9b 3d eb 7b 7c 3e e1 0a 16 3f 74 44 c7 3c
       0.07608059 0.24656646 0.5861035 0.024324633
000380 eb d0 47 bf 7a 7f 59 3f be 4c 15 bf c9 03 44 3e
       -0.7805316 0.8496014 -0.58320224 0.19142069
000390 4a 50 2b 3f 23 60 3c bf c4 f6 05 3f f9 b5 09 3f
       0.66919386 -0.73584193 0.5232966 0.53793293
0003a0 bf bc be 3e c1 66 80 3e f9 3e 19 bf 79 6a 4b bf
       0.37253377 0.25078395 -0.59861714 -0.7945934
0003b0 03 84 40 3f df ec 6a bf 1a 99 c4 3e f6 43 1b be
       0.75201434 -0.91767687 0.38398057 -0.15162644
0003c0 a9 2b d9 be f8 d1 46 3f 3f 3d 9e be 72 d7 8e 3e
       -0.42416123 0.77664137 -0.30906102 0.27898747
0003d0 87 bb 57 bf 73 0e 8b 3e c9 f0 c5 3e 08 c7 7d 3f
       -0.8427052 0.2715946 0.38660267 0.9913182
0003e0 1d 69 d0 be 5d 2a cc be dd a1 55 3e 07 0c 52 3f
       -0.40705195 -0.3987607 0.20862527 0.820496
0003f0 f0 9d 37 bf 4f 18 5d 3f e5 70 45 3f 81 c4 01 bf
       -0.7172537 0.86365217 0.7712539 -0.50690466

fc.bias f4 [38]
000000 a8 cd 39 bf e0 b5 ed be ea 75 42 bf 50 c5 25 bf
       -0.7257943 -0.46427822 -0.7596117 -0.647542
000010 95 4f 18 bf 8a 52 40 bf ef 6c 12 bf 59 9c 1f bd
       -0.5949643 -0.75125945 -0.5719747 -0.038967464
000020 60 20 30 bf bf c5 fb be a0 6c f7 be 38 da 2c bf
       -0.687994 -0.49174306 -0.48325062 -0.67520475
000030 be cb 35 bf 8d 11 e9 be d4 a7 24 3f b6 54 53 be
       -0.7101401 -0.45521203 0.64318585 -0.20637783
000040 27 9c ae 3e 19 1d 2c bf f1 7b 2e bf d5 c4 f4 be
       0.3410351 -0.672319 -0.6815787 -0.4780642
000050 2c a6 53 3e d8 4a e3 be 3a dc 07 bf f2 20 1c bf
       0.20668858 -0.4439304 -0.53070414 -0.6098777
000060 56 4e 1b bf fb 14 de bd 00 3a 2e bf da 41 2e be
       -0.60666406 -0.108438455 -0.6805725 -0.17017308
000070 fa 4a 01 bf b9 db 0d bf f6 65 04 bf 9e 79 1f bf
       -0.5050503 -0.55413395 -0.5171808 -0.6229495
000080 d0 c2 8a be ce 10 2a bf be f6 10 bf 18 a4 2f bf
       -0.27101755 -0.6643189 -0.566265 -0.6860976
000090 bf ac 24 bf a0 e0 10 bf
       -0.6432609 -0.5659275
